Use saved processed data...
load using file: P5/saved/cora-loadedData.pk
method running...
--network status--
==========================================================================================
Layer (type:depth-idx)                   Output Shape              Param #
==========================================================================================
Method_Classification                    [2708, 7]                 --
├─Sequential_36b5d0: 1-1                 [2708, 7]                 --
│    └─GCNConv: 2-1                      [2708, 100]               100
│    │    └─Linear: 3-1                  [2708, 100]               143,300
│    │    └─SumAggregation: 3-2          [2708, 100]               --
│    └─ReLU: 2-2                         [2708, 100]               --
│    └─GCNConv: 2-3                      [2708, 50]                50
│    │    └─Linear: 3-3                  [2708, 50]                5,000
│    │    └─SumAggregation: 3-4          [2708, 50]                --
│    └─ReLU: 2-4                         [2708, 50]                --
│    └─GCNConv: 2-5                      [2708, 7]                 7
│    │    └─Linear: 3-5                  [2708, 7]                 350
│    │    └─SumAggregation: 3-6          [2708, 7]                 --
│    └─ReLU: 2-6                         [2708, 7]                 --
==========================================================================================
Total params: 148,807
Trainable params: 148,807
Non-trainable params: 0
Total mult-adds (M): 402.54
==========================================================================================
Input size (MB): 15.61
Forward/backward pass size (MB): 3.40
Params size (MB): 0.59
Estimated Total Size (MB): 19.61
==========================================================================================
…
    accuracy                           0.48       853
   macro avg       0.45      0.48      0.39       853
weighted avg       0.45      0.48      0.39       853

saving models...
Accurarcy is: 48.06565064478312%
Use saved processed data...
load using file: P5/saved/cora-loadedData.pk
method running...
--network status--
==========================================================================================
Layer (type:depth-idx)                   Output Shape              Param #
==========================================================================================
Method_Classification                    [2708, 7]                 --
├─Sequential_cc33ac: 1-1                 [2708, 7]                 --
│    └─GCNConv: 2-1                      [2708, 100]               100
│    │    └─Linear: 3-1                  [2708, 100]               143,300
│    │    └─SumAggregation: 3-2          [2708, 100]               --
│    └─ReLU: 2-2                         [2708, 100]               --
│    └─GCNConv: 2-3                      [2708, 50]                50
│    │    └─Linear: 3-3                  [2708, 50]                5,000
│    │    └─SumAggregation: 3-4          [2708, 50]                --
│    └─ReLU: 2-4                         [2708, 50]                --
│    └─GCNConv: 2-5                      [2708, 16]                16
│    │    └─Linear: 3-5                  [2708, 16]                800
│    │    └─SumAggregation: 3-6          [2708, 16]                --
│    └─ReLU: 2-6                         [2708, 16]                --
│    └─Linear: 2-7                       [2708, 7]                 119
│    └─ReLU: 2-8                         [2708, 7]                 --
==========================================================================================
Total params: 149,385
Trainable params: 149,385
Non-trainable params: 0
Total mult-adds (M): 404.09
==========================================================================================
Input size (MB): 15.61
Forward/backward pass size (MB): 3.75
Params size (MB): 0.60
Estimated Total Size (MB): 19.95
==========================================================================================
…
, 2675, 1191, 2005, 2350, 1824, 2210, 1671, 695, 2182, 1444, 382, 1270, 140, 2689, 319, 1238, 1181, 1237, 1861, 1888, 2423, 164, 1235, 2225, 1647, 488, 2623, 1491, 109, 1227, 79, 2329, 1174, 264, 1095, 740, 2099, 887, 9, 706, 1053, 2059, 2134, 2092, 865, 903, 926]
method running...
--network status--
==========================================================================================
Layer (type:depth-idx)                   Output Shape              Param #
==========================================================================================
Method_Classification                    [2708, 7]                 --
├─Sequential_c81df2: 1-1                 [2708, 7]                 --
│    └─GCNConv: 2-1                      [2708, 50]                50
│    │    └─Linear: 3-1                  [2708, 50]                71,650
│    │    └─SumAggregation: 3-2          [2708, 50]                --
│    └─ReLU: 2-2                         [2708, 50]                --
│    └─GCNConv: 2-3                      [2708, 7]                 7
│    │    └─Linear: 3-3                  [2708, 7]                 350
│    │    └─SumAggregation: 3-4          [2708, 7]                 --
│    └─Sigmoid: 2-4                      [2708, 7]                 --
==========================================================================================
Total params: 72,057
Trainable params: 72,057
Non-trainable params: 0
Total mult-adds (M): 194.98
==========================================================================================
Input size (MB): 15.61
Forward/backward pass size (MB): 1.23
Params size (MB): 0.29
Estimated Total Size (MB): 17.13
==========================================================================================
…
