Loading cora dataset...
method running...
--network status--
==========================================================================================
Layer (type:depth-idx)                   Output Shape              Param #
==========================================================================================
Method_Classification                    [2708, 7]                 --
├─Sequential_5df26e: 1-1                 [2708, 7]                 --
│    └─GCNConv: 2-1                      [2708, 16]                16
│    │    └─Linear: 3-1                  [2708, 16]                22,928
│    │    └─SumAggregation: 3-2          [2708, 16]                --
│    └─ReLU: 2-2                         [2708, 16]                --
│    └─GCNConv: 2-3                      [2708, 7]                 7
│    │    └─Linear: 3-3                  [2708, 7]                 112
│    │    └─SumAggregation: 3-4          [2708, 7]                 --
│    └─ReLU: 2-4                         [2708, 7]                 --
==========================================================================================
Total params: 23,063
Trainable params: 23,063
Non-trainable params: 0
Total mult-adds (M): 62.39
==========================================================================================
Input size (MB): 15.61
Forward/backward pass size (MB): 0.50
Params size (MB): 0.09
Estimated Total Size (MB): 16.20
==========================================================================================
…
