Loading citeseer dataset...
Loading citeseer dataset...
Use saved processed data...
load using file: P5/saved/citeseer-loadedData-trainIdxRange(0, 2648)-testIdxRange(2649, 3311).pk
method running...
--network status--
==========================================================================================
Layer (type:depth-idx)                   Output Shape              Param #
==========================================================================================
Method_Classification                    [3312, 6]                 --
├─Sequential_432e3f: 1-1                 [3312, 6]                 --
│    └─GCNConv: 2-1                      [3312, 16]                16
│    │    └─Linear: 3-1                  [3312, 16]                59,248
│    │    └─SumAggregation: 3-2          [3312, 16]                --
│    └─ReLU: 2-2                         [3312, 16]                --
│    └─GCNConv: 2-3                      [3312, 6]                 6
│    │    └─Linear: 3-3                  [3312, 6]                 96
│    │    └─SumAggregation: 3-4          [3312, 6]                 --
│    └─ReLU: 2-4                         [3312, 6]                 --
==========================================================================================
Total params: 59,366
Trainable params: 59,366
Non-trainable params: 0
Total mult-adds (M): 196.55
==========================================================================================
Input size (MB): 49.13
Forward/backward pass size (MB): 0.58
Params size (MB): 0.24
Estimated Total Size (MB): 49.95
==========================================================================================
…
   macro avg       0.57      0.58      0.57       663
weighted avg       0.60      0.61      0.60       663

saving models...
Accurarcy is: 61.38763197586727%
Use saved processed data...
load using file: P5/saved/citeseer-loadedData-trainIdxRange(0, 2648)-testIdxRange(2649, 3311).pk
method running...
--network status--
==========================================================================================
Layer (type:depth-idx)                   Output Shape              Param #
==========================================================================================
Method_Classification                    [3312, 6]                 --
├─Sequential_b0f837: 1-1                 [3312, 6]                 --
│    └─GCNConv: 2-1                      [3312, 100]               100
│    │    └─Linear: 3-1                  [3312, 100]               370,300
│    │    └─SumAggregation: 3-2          [3312, 100]               --
│    └─ReLU: 2-2                         [3312, 100]               --
│    └─GCNConv: 2-3                      [3312, 50]                50
│    │    └─Linear: 3-3                  [3312, 50]                5,000
│    │    └─SumAggregation: 3-4          [3312, 50]                --
│    └─ReLU: 2-4                         [3312, 50]                --
│    └─Linear: 2-5                       [3312, 6]                 306
│    └─ReLU: 2-6                         [3312, 6]                 --
==========================================================================================
Total params: 375,756
Trainable params: 375,756
Non-trainable params: 0
Total mult-adds (G): 1.24
==========================================================================================
Input size (MB): 49.13
Forward/backward pass size (MB): 4.13
Params size (MB): 1.50
Estimated Total Size (MB): 54.77
==========================================================================================
…
   macro avg       0.57      0.57      0.56       663
weighted avg       0.59      0.60      0.59       663

saving models...
Accurarcy is: 60.33182503770739%
Use saved processed data...
load using file: P5/saved/citeseer-loadedData-trainIdxRange(0, 2648)-testIdxRange(2649, 3311).pk
method running...
--network status--
==========================================================================================
Layer (type:depth-idx)                   Output Shape              Param #
==========================================================================================
Method_Classification                    [3312, 6]                 --
├─Sequential_002430: 1-1                 [3312, 6]                 --
│    └─GCNConv: 2-1                      [3312, 100]               100
│    │    └─Linear: 3-1                  [3312, 100]               370,300
│    │    └─SumAggregation: 3-2          [3312, 100]               --
│    └─ReLU: 2-2                         [3312, 100]               --
│    └─GCNConv: 2-3                      [3312, 50]                50
│    │    └─Linear: 3-3                  [3312, 50]                5,000
│    │    └─SumAggregation: 3-4          [3312, 50]                --
│    └─ReLU: 2-4                         [3312, 50]                --
│    └─GCNConv: 2-5                      [3312, 6]                 6
│    │    └─Linear: 3-5                  [3312, 6]                 300
│    │    └─SumAggregation: 3-6          [3312, 6]                 --
│    └─ReLU: 2-6                         [3312, 6]                 --
==========================================================================================
Total params: 375,756
Trainable params: 375,756
Non-trainable params: 0
Total mult-adds (G): 1.24
==========================================================================================
Input size (MB): 49.13
Forward/backward pass size (MB): 4.13
Params size (MB): 1.50
Estimated Total Size (MB): 54.77
==========================================================================================
…
