…
 1541, 2752, 343, 1519, 1955, 1571, 1270, 1151, 2050, 2124, 2049, 2005, 249, 1185, 1853, 2023, 1285, 3010, 1113, 433, 1446, 559, 1940, 2255, 3219, 1764, 2095, 2862, 3127, 2796, 2382, 1603, 1453, 2440, 1292, 2151, 1705, 1108, 2515, 2075, 610, 1435, 1702, 2870, 695]
method running...
--network status--
==========================================================================================
Layer (type:depth-idx)                   Output Shape              Param #
==========================================================================================
Method_Classification                    [3312, 6]                 --
├─Sequential_8b872f: 1-1                 [3312, 6]                 --
│    └─GCNConv: 2-1                      [3312, 50]                50
│    │    └─Linear: 3-1                  [3312, 50]                185,150
│    │    └─SumAggregation: 3-2          [3312, 50]                --
│    └─ReLU: 2-2                         [3312, 50]                --
│    └─GCNConv: 2-3                      [3312, 6]                 6
│    │    └─Linear: 3-3                  [3312, 6]                 300
│    │    └─SumAggregation: 3-4          [3312, 6]                 --
│    └─Sigmoid: 2-4                      [3312, 6]                 --
==========================================================================================
Total params: 185,506
Trainable params: 185,506
Non-trainable params: 0
Total mult-adds (M): 614.21
==========================================================================================
Input size (MB): 49.13
Forward/backward pass size (MB): 1.48
Params size (MB): 0.74
Estimated Total Size (MB): 51.36
==========================================================================================
…
