value of saved: True
Using saved embedded tensor
Went through here
method running...
--network status--
==========================================================================================
Layer (type:depth-idx)                   Output Shape              Param #
==========================================================================================
Method_Generation                        [9616, 4330]              --
├─ModuleDict: 1-1                        --                        --
│    └─Embedding: 2-1                    [9616, 3, 4330]           41,637,280
│    └─LSTM: 2-2                         [9616, 3, 50]             876,400
│    └─extract_tensorLTSM: 2-3           [9616, 50]                --
│    └─Linear: 2-4                       [9616, 4330]              220,830
│    └─ReLU: 2-5                         [9616, 4330]              --
==========================================================================================
Total params: 42,734,510
Trainable params: 42,734,510
Non-trainable params: 0
Total mult-adds (G): 427.79
==========================================================================================
Input size (MB): 0.23
Forward/backward pass size (MB): 1343.93
Params size (MB): 170.94
Estimated Total Size (MB): 1515.10
…
