…
15679, 3433, 11373, 2334, 10770, 18076, 19031, 15399, 6384, 18177, 1139, 10300, 13294, 10651, 13513, 10678, 168, 3927, 5062, 11430, 8132, 1234, 1363, 10940, 1279, 17949, 3542, 17431, 18152, 1914, 15767, 17929, 1133, 10171, 2037, 490, 8481, 7075, 5914, 15291, 7220]
method running...
--network status--
==========================================================================================
Layer (type:depth-idx)                   Output Shape              Param #
==========================================================================================
Method_Classification                    [19717, 3]                --
├─Sequential_87497e: 1-1                 [19717, 3]                --
│    └─GCNConv: 2-1                      [19717, 100]              100
│    │    └─Linear: 3-1                  [19717, 100]              50,000
│    │    └─SumAggregation: 3-2          [19717, 100]              --
│    └─ReLU: 2-2                         [19717, 100]              --
│    └─GCNConv: 2-3                      [19717, 50]               50
│    │    └─Linear: 3-3                  [19717, 50]               5,000
│    │    └─SumAggregation: 3-4          [19717, 50]               --
│    └─ReLU: 2-4                         [19717, 50]               --
│    └─GCNConv: 2-5                      [19717, 16]               16
│    │    └─Linear: 3-5                  [19717, 16]               800
│    │    └─SumAggregation: 3-6          [19717, 16]               --
│    └─ReLU: 2-6                         [19717, 16]               --
│    └─Linear: 2-7                       [19717, 3]                51
│    └─Sigmoid: 2-8                      [19717, 3]                --
==========================================================================================
Total params: 56,017
Trainable params: 56,017
Non-trainable params: 0
Total mult-adds (G): 1.10
==========================================================================================
Input size (MB): 40.14
Forward/backward pass size (MB): 26.66
Params size (MB): 0.22
Estimated Total Size (MB): 67.02
==========================================================================================
…
