value of saved: True
Using saved embedded tensor
method running...
--network status--
==========================================================================================
Layer (type:depth-idx)                   Output Shape              Param #
==========================================================================================
Method_Generation                        [18585, 4368]             --
├─ModuleDict: 1-1                        --                        --
│    └─Embedding: 2-1                    [18585, 3, 4368]          81,179,280
│    └─LSTM: 2-2                         [18585, 3, 50]            884,000
│    └─Flatten: 2-3                      [18585, 150]              --
│    └─Linear: 2-4                       [18585, 4368]             659,568
│    └─ReLU: 2-5                         [18585, 4368]             --
==========================================================================================
Total params: 82,722,848
Trainable params: 82,722,848
Non-trainable params: 0
Total mult-adds (T): 1.57
==========================================================================================
Input size (MB): 0.45
Forward/backward pass size (MB): 2620.04
Params size (MB): 330.89
Estimated Total Size (MB): 2951.38
…
